RPS files/RPSclassModel.pth (torch_old, 76150 bytes, 6 tensors)

cnn1.weight f4 [16, 3, 5, 5]
000000 dc da 9a bd 34 06 bd bd be e6 a0 bd 6f b7 92 3c
       -0.07561275 -0.09229699 -0.078565106 0.017909734
000010 30 7c 80 3d e7 02 e0 3d 62 29 b8 3c 31 29 7b bd
       0.06273687 0.109380536 0.02248067 -0.06131858
000020 4c 84 d7 bd 08 84 dd bd 7a 01 7d bd 23 de b7 bd
       -0.105232805 -0.108161986 -0.061768986 -0.08977916
000030 62 26 6f bd 53 9c d8 3d 6e 99 a2 bd cc 12 28 3d
       -0.058386214 0.105766915 -0.07939421 0.04103355
000040 2e 54 86 3d 28 6c c5 3d 01 42 cd bd 1b f3 c3 bd
       0.06559025 0.0963977 -0.10022355 -0.09567853
000050 50 ce 82 3c 8d 50 ff 3b 0e 51 e1 bc d0 0a 1e 3c
       0.015967518 0.007791585 -0.02750447 0.009646133
000060 66 91 c5 3d 68 af df ba 54 7f 9f 3d a0 d2 90 3b
       0.09646873 -0.0017065825 0.07787958 0.0044196397
000070 09 c1 60 3d 8f c0 e2 3c 25 f9 bb 3d c2 9f a0 bc
       0.054871593 0.02767971 0.0917838 -0.019607428
000080 19 06 47 bd b1 80 56 bd ae 18 e3 bd 2b 1e ea bd
       -0.0485898 -0.052368823 -0.11088692 -0.11431535
000090 2f ce c9 bc cc 7c 5c bd f1 dc 53 bd a7 5f 74 3d
       -0.024634449 -0.053829953 -0.051724378 0.059661534
0000a0 26 3b a2 bd 20 90 db bc 1e 04 a7 bd 60 6f 31 bb
       -0.07921438 -0.026802123 -0.08155082 -0.0027074441
0000b0 96 e0 b0 bd 57 15 73 bd 00 1c 90 bd fe 35 c0 3a
       -0.08636586 -0.059346523 -0.070365906 0.0014664528
0000c0 80 f8 26 3c 50 54 bc bd 3a 0b 8c 3d 18 2e c1 bd
       0.010191083 -0.09195769 0.06838079 -0.0943262
0000d0 9b dd 4e bd 29 ed 4c 3d 07 96 e8 bd 2f f9 7f bd
       -0.05050431 0.05003086 -0.113567404 -0.0624935
0000e0 03 b8 e8 bd c5 59 ea 3d ca 44 ea bd 8e d5 d1 3d
       -0.113632225 0.114429034 -0.11438902 0.102458104
0000f0 51 bb dd 3d 6c 02 34 bd f5 ce 32 bd 7d b2 d3 bd
       0.108267434 -0.043947622 -0.0436544 -0.10336778
000100 69 da b0 3d c9 37 1d 3c 0e 61 c2 bd 08 90 cc bd
       0.086354084 0.00959582 -0.09491168 -0.09988409
000110 0d 60 5d bd c0 23 a9 3d 0b 7f 0e bb 5f 30 db bb
       -0.05404668 0.08258772 -0.0021743204 -0.006689116
000120 10 e5 cf 3d 2c 73 8a bd 8a 31 8d 3d fe 03 56 3d
       0.10151112 -0.067602485 0.068942145 0.0522499
000130 c8 9d ea 3d 2c 01 02 3e ab 68 d5 3b c2 71 90 3d
       0.11455876 0.1269576 0.0065127215 0.070529476
000140 ae 7f 90 bd 06 0e 0e 3e 32 78 32 3e fe 4d 45 3e
       -0.07055603 0.13872537 0.17428663 0.19268033
000150 20 0d 2f bc 20 e0 91 bd ae 37 3c 3e eb dd 0b 3e
       -0.010684282 -0.071228266 0.18380615 0.13658874
000160 9b f4 30 3e da 6b f7 3a e9 4e 93 3d 72 b1 3e bc
       0.1728081 0.0018876747 0.07192785 -0.011638986
000170 68 15 dd 3d ce 1b c7 bc 12 62 c5 3b 0e 5e 4c 3c
       0.107950985 -0.02430525 0.006023654 0.012473596
000180 16 07 08 3e 8b eb df 3d 2f 82 5d 3c 60 c6 00 be
       0.13283953 0.10933598 0.013519808 -0.12575674
000190 8f 24 fc 3c 9a 9c 03 3e 44 fa 27 bc a3 bb 84 3d
       0.030779151 0.12852708 -0.010252539 0.06481101
0001a0 4d 52 65 bd 87 53 11 3e ed 69 2b 3e 68 a8 4a 3e
       -0.05598669 0.1419202 0.16739626 0.19790804
0001b0 fa a6 18 3e 25 22 e1 3c 1c 81 72 3c 39 57 43 3d
       0.14907447 0.027482102 0.01480129 0.047690604
0001c0 2c 97 c4 3d 54 6d d9 3d 43 39 c9 bd d0 22 a1 3c
       0.09599146 0.10616556 -0.09825375 0.01966992
0001d0 2f f7 c9 3b df e0 09 3e 2c c6 13 3e 2a a2 a3 3b
       0.0061635 0.13464688 0.14431065 0.0049936967
0001e0 6e e1 e6 bd 3b 4a 16 3d 3f 51 a3 3d 9f da dc 3d
       -0.11273466 0.036691885 0.07974481 0.10783886
0001f0 f9 e2 fe bd e6 4a 07 bd 83 b3 27 3e b9 f2 59 3d
       -0.12445635 -0.033030413 0.16377072 0.053209994
000200 18 ab f0 3d 25 09 16 3e 58 9b 7a 3c b9 84 3d 3e
       0.117513835 0.14651926 0.015295826 0.18507661
000210 bc 05 4b 3e 16 9e 52 3e bc b9 25 3e d3 d2 d4 bc
       0.19826406 0.20568117 0.16184133 -0.025979435
000220 7f f9 10 bd f5 a7 02 3e ee 38 08 3d ef d3 72 bd
       -0.035394188 0.12759383 0.033257417 -0.059284147
000230 f9 1d 97 bd 2d 2b 09 3e 24 42 05 3e 58 af 08 3e
       -0.07378764 0.13395377 0.13013512 0.13348138
000240 79 32 e3 bd 10 76 f5 bc ee 21 f0 bc f2 d0 a6 bd
       -0.11093611 -0.029963523 -0.029313054 -0.08145322
000250 65 26 04 bd db aa 82 3d f9 94 d9 3d cb 6b 53 3e
       -0.03226318 0.06380244 0.106241174 0.20646589
000260 5a fa 32 3e 25 80 33 3e d7 27 92 3d 93 75 87 bc
       0.17478314 0.17529352 0.07136505 -0.016535556
000270 5d 09 e5 3d fa 56 52 3e 86 2d ee 3d 8c c3 bf 3d
       0.111834265 0.20540991 0.11629777 0.093634695
000280 a2 2b b3 3d 07 b5 00 be 72 e4 42 3c 4a 92 35 bc
       0.08748557 -0.12569056 0.011895286 -0.011082241
000290 5c f9 31 bc af f0 f6 bd eb 8b 01 be 70 58 51 be
       -0.010862675 -0.120576255 -0.1265103 -0.20443892
0002a0 0f 83 05 be cb 5a 31 be f8 74 1f be 97 7a 5a bd
       -0.13038276 -0.17319791 -0.15571964 -0.053339567
0002b0 86 a2 3e be e4 cf bb bd 4f e5 00 bd 45 52 45 3c
       -0.18616685 -0.09170511 -0.031468686 0.01204354
0002c0 f3 7b 51 3e 2d 4d 35 3d 39 1b 8b 3d c1 aa b6 3d
       0.20457439 0.044263054 0.06792302 0.089192875
0002d0 e1 75 f4 3c af b6 29 3e a4 08 4f 3e 8a fa b7 3d
       0.029841365 0.16573595 0.2021814 0.089833334
0002e0 3e 74 0a 3e 3c 72 9c bc fd a7 98 3d c1 ab bb 3d
       0.13520905 -0.01909744 0.07453916 0.09163619
0002f0 88 7b d4 3a 1a 76 94 bd 71 0d fe bd e0 d7 32 be
       0.0016211132 -0.072490886 -0.124049075 -0.17465162
000300 74 18 3a be 4f 5e d9 bb ab 95 cf bc 9a c6 27 be
       -0.1817339 -0.006633557 -0.025339922 -0.16384354
000310 e2 79 0f be 91 e8 c6 bc b0 7d 65 be 22 7e 63 be
       -0.14011338 -0.024280818 -0.22411227 -0.22216085
000320 eb 1f 18 3d 9b 34 06 3e 98 22 dc 3c ed d8 2e 3e
       0.037139814 0.13106005 0.026871964 0.17074938
000330 d5 11 2c 3e 83 f8 03 3e ef cf d3 3d 5c e3 8a 3d
       0.16803677 0.12887768 0.103423946 0.067816466
000340 4a 61 19 3e bf 3c 4c 3e ac 1d d3 bd f1 08 8c 3d
       0.14978519 0.19945048 -0.10308394 0.06837643
000350 1a 43 73 3d aa a1 31 bd ea d1 db 3d 6b 61 6a bd
       0.059390165 -0.043367065 0.10733397 -0.05722181
000360 d8 ce 83 bc 36 5b b1 bd 25 62 2a 3c 09 46 25 be
       -0.016089842 -0.08659975 0.010399376 -0.16139998
000370 de 28 40 be 7d 8b d8 bd 09 83 14 be d6 b8 66 be
       -0.1876559 -0.1057348 -0.14503111 -0.22531447
000380 49 be ef bd 2e cb af 3d f2 03 ac bc 4c 6b db 3d
       -0.11706216 0.08583675 -0.020997975 0.10713825
000390 05 bc ee bc 1f 21 a9 3d 7f 4e cb 3c aa a3 32 3d
       -0.02914239 0.082582705 0.024817703 0.043613113
0003a0 d0 51 13 3e 6e b8 fa 3d d6 ae ee ba 2a b4 9b bd
       0.14386678 0.122422084 -0.0018210064 -0.07602723
0003b0 8c 68 49 bd d0 df 25 bb 92 72 c4 3d 02 03 8d 3d
       -0.04917197 -0.0025310405 0.09592165 0.06885339
0003c0 fd 89 3e 39 43 fd 2d 3d 64 fc a8 3c 89 e1 04 be
       0.00018171217 0.042477857 0.020628162 -0.1297666
0003d0 9d ed 2b bd a2 2c 9c bd 5d 39 1d bd 67 89 56 be
       -0.041974653 -0.076257005 -0.038384784 -0.20950852
0003e0 d4 e3 49 be dd e2 26 be 00 51 03 bd 1f 27 06 3e
       -0.19715816 -0.16297479 -0.03205967 0.13100861
0003f0 56 54 8d 3d 7f 7c c4 3c 91 40 6b 3d 21 93 00 3e
       0.069008514 0.023985146 0.057434622 0.12556125

cnn1.bias f4 [16]
000000 64 6f 07 3d af da b7 be 09 b9 cc 3d 1d 3e 97 3d
       0.033065215 -0.3590903 0.0999623 0.07384894
000010 59 59 d7 3d 97 04 2e bd b7 9d bb bc 12 27 a3 bd
       0.105150886 -0.042484846 -0.022902353 -0.079664364
000020 26 82 b4 3d 4d 9b 87 be 7e 6b 47 bd 01 90 a3 3d
       0.08813886 -0.26485673 -0.048686497 0.07986451
000030 d8 54 d9 bb 3e f9 e8 bd ef 15 00 3d 5a 66 8e be
       -0.0066324286 -0.11375664 0.031270918 -0.27812463

cnn2.weight f4 [32, 16, 5, 5]
000000 6d 18 29 3d b6 33 cf 3c 8e 2c ef 3c ef 76 6a 3b
       0.04128306 0.025293212 0.02919605 0.0035776456
000010 94 22 d1 3c b8 42 74 bc f8 36 5a bc 82 0e 93 3c
       0.025529183 -0.014908485 -0.01331877 0.017951254
000020 f5 43 93 3b 2e 7c dd 3c 69 76 15 3d c2 0f df 3c
       0.004494185 0.027036753 0.036489878 0.027229194
000030 1e 0e e2 bb bb f7 dd bc 00 4a e7 3c cf e3 42 bd
       -0.0068986556 -0.027095666 0.028233528 -0.047580536
000040 e8 68 ea 3b 3b 0f 86 3c 5e 28 d3 ba fa 0d 39 3d
       0.007153619 0.016364684 -0.0016110053 0.045179345
000050 ef c0 2c 3d 58 7c fd 3b 1e 29 2e 3c 9a 19 21 3c
       0.042176183 0.00773577 0.01062992 0.009832764
000060 9e 31 9b bc 6c ba b3 3c e8 ca 47 bd df 57 00 bd
       -0.018944558 0.021939479 -0.04877749 -0.0313338
000070 fe 98 c1 bc db 35 0d bd 71 59 0a bd bc 0f 32 bd
       -0.023632523 -0.03447519 -0.033776704 -0.043472037
000080 b3 a8 29 bd 14 16 59 3c 6c 02 16 bd 94 84 4a bc
       -0.04142065 0.013249893 -0.036623403 -0.012360711
000090 48 3e 6e bc 41 5c 42 bd 1c 6a e7 bb d4 64 92 3b
       -0.014541216 -0.04745126 -0.00706221 0.004467586
0000a0 ba 20 39 3d ad a1 d7 bc 95 3c b8 bc 7e e1 19 3d
       0.045197226 -0.02632221 -0.022489825 0.03756856
0000b0 48 a1 c6 3a 69 96 2f bc c3 0a f4 bb d1 16 50 bc
       0.0015154267 -0.010717013 -0.007447572 -0.012700752
0000c0 ab e1 83 3b d0 08 25 3c 6d d0 a9 3b 44 54 64 3c
       0.0040247045 0.010072902 0.005182317 0.013936106
0000d0 d5 b6 11 bd 1d 3d 2e bd ce 53 a4 bc b5 83 d9 bc
       -0.035574753 -0.04253875 -0.020059492 -0.02655206
0000e0 77 8a d5 3c ea 8f 16 bd 00 c7 48 bd b7 ba 6c bc
       0.026067002 -0.03675834 -0.049017906 -0.014448813
0000f0 6b 0b 0e 3b 31 6a 4e bd 1b 76 6b 3c 14 3c 9a bc
       0.0021674286 -0.05039424 0.01437142 -0.018827476
000100 ac 9f 21 bc 1a 4c 40 bd 29 89 ca bc ca 38 34 3d
       -0.009864729 -0.046947576 -0.024723606 0.04399947
000110 e1 e6 d3 bc 11 bf 1e bd 92 d6 fc 3c 85 c1 f4 bc
       -0.025866928 -0.038756434 0.030864034 -0.029877434
000120 7a e6 95 bb 89 07 51 3c 8a 31 01 3a 4a 5c f7 bc
       -0.004574594 0.012758144 0.00049283414 -0.030195374
000130 4f 23 1c 3d 12 39 5a bb 31 7a 04 bd 46 db 2e 3c
       0.03811961 -0.0033298177 -0.032343093 0.010672396
000140 18 7c d7 bb 2c 48 9e bc b8 38 da bc 20 b0 10 bc
       -0.0065760724 -0.019321524 -0.026638374 -0.008831054
000150 86 09 31 3d 96 6a 16 3d 03 81 5d bc 46 ab c9 bc
       0.043221973 0.036722742 -0.013519528 -0.024617802
000160 c7 02 b8 bc d5 08 0f 3c 3a 02 07 bd 8a 2d 6a 3c
       -0.022462262 0.008730133 -0.032961108 0.014293084
000170 60 8a 9a 3c 74 66 d3 bb 2a 46 3a bd 73 a1 2e bd
       0.01886481 -0.0064514223 -0.04547707 -0.04263444
000180 56 96 25 bd 12 11 89 bc 99 a8 09 bd 30 ff f0 3c
       -0.040426575 -0.016731773 -0.033608053 0.029418558
000190 7e b4 1c 3c 38 cd b1 bc 66 69 24 bd 8f 02 ba 3b
       0.009564517 -0.021704301 -0.04013958 0.0056765745
0001a0 04 46 09 bd d9 1a dd 3c 6b ac 47 3d 24 97 1d bd
       -0.033514038 0.026990341 0.048748415 -0.038474217
0001b0 ea e4 0f bd 12 fc 7e bc 5c 5e 3c 3d 1b 7f 02 3d
       -0.03513042 -0.015563028 0.045988426 0.0318595
0001c0 ad 48 6b 3d e3 6c 17 3d a6 72 44 3d a3 8c 83 3c
       0.057442356 0.036969077 0.0479609 0.016058272
0001d0 30 ee 2b 3c 84 e1 1e 3d 87 25 88 3d b2 1a a4 3c
       0.0104938 0.038789287 0.06647783 0.02003226
0001e0 9c 8f 9c bc 94 41 e3 3c e7 1f 2a 3d 5f ac af 3c
       -0.019111447 0.027741231 0.04153433 0.021444498
0001f0 6f 15 9d bb 93 e2 fa bc 66 f7 c5 bc f6 7a 46 bd
       -0.004793815 -0.030625617 -0.02416582 -0.04845711
000200 42 26 fa 3c 02 71 c8 bc 93 50 ac 3a d0 74 07 3d
       0.03053582 -0.024467949 0.0013146572 0.033070385
000210 54 c2 02 bd 17 cf 41 3c 98 6b ec 3c ec 48 92 3c
       -0.031923607 0.011829159 0.028859898 0.017857037
000220 a0 db cb bc 73 1c b2 bc 4e 71 45 3d fb 62 7e bc
       -0.024884999 -0.021742081 0.04820376 -0.0155265285
000230 36 40 ca 3c 3e 7f d5 3c f9 0e 01 bd d4 a7 57 3c
       0.024688821 0.02606165 -0.03150842 0.013162572
000240 f5 9e 7d 3b d6 22 b1 3a 7d 5d 1c bc 80 1f 22 3d
       0.0038699482 0.001351441 -0.009543774 0.039580822
000250 58 9f 1c 3d 20 10 94 3c 9c 8f db 3b 4a 4a e2 bc
       0.0382379 0.018074095 0.006700469 -0.027623314
000260 c8 39 24 bd 13 de 11 3d c4 31 35 bd 36 96 d8 3c
       -0.040094167 0.035612177 -0.044236913 0.026438814
000270 b7 ee 0a bd 1e 51 b0 3c 4b 05 b1 3a 8e ff 98 3c
       -0.033919062 0.021523055 0.0013505606 0.018676545
000280 a0 aa dc bc 96 36 c1 3b dc b8 51 3c 5b 47 bd bc
       -0.02693683 0.0058963997 0.012800422 -0.023105314
000290 26 1d a8 3c 05 1e 0d 3d 18 f9 e6 3c 70 97 1b bd
       0.020521712 0.034452457 0.028194949 -0.03798622
0002a0 7d d2 35 3d 77 fc 13 bd 53 40 d6 3c 88 c8 6b 3c
       0.04439019 -0.03612944 0.026153719 0.014391072
0002b0 0d 37 0f bc c9 bf 20 3d 3a 21 95 bc 90 71 3d 3b
       -0.0087411525 0.0392454 -0.01820432 0.00289068
0002c0 75 77 de bb 9e 3f 8e bc 1a 21 80 3c a9 5b db bb
       -0.0067891427 -0.01736432 0.015640784 -0.0066942764
0002d0 f0 f0 12 ba c2 7b bc 3b 8c 8b e7 bc 48 a1 36 bd
       -0.00056053605 0.005752058 -0.028264783 -0.044587404
0002e0 6e dd e7 3c fc a9 42 3d 7c b3 2c bc da b6 37 ba
       0.028303828 0.04752539 -0.010540839 -0.0007008143
0002f0 47 7e a0 b8 a9 09 10 3c 29 c5 83 bc d3 69 02 bd
       -7.6529155e-05 0.008791366 -0.016085224 -0.031839203
000300 8f f3 74 3b 65 90 02 bd 35 68 1e bd e1 88 17 bd
       0.0037376618 -0.031875987 -0.0386736 -0.036995772
000310 88 3c 2b bd e9 5a 3c 3c 93 10 d3 bc c0 7c d0 bc
       -0.041805774 0.011496284 -0.02576474 -0.02545011
000320 45 3a 9f 3c dc b3 00 3d 4e 2e 7f 3b 7e 4d 3a 3c
       0.019436965 0.031421527 0.0038937512 0.011371015
000330 e7 7d c0 3c aa c5 26 bc 59 7c de bc 07 62 fb bb
       0.023497535 -0.010178963 -0.027158903 -0.007671598
000340 82 11 2d bd e9 51 d0 bc 9d 6e db 3b 1e d7 00 bd
       -0.042253025 -0.025429683 0.0066965357 -0.03145515
000350 25 28 f0 3c f8 09 3f 3d 2c 9e 0a 3d 85 cd 7a 3b
       0.029316017 0.046640366 0.03384225 0.0038269472
000360 1c 3a a8 ba 43 9a 58 bc 33 0c 33 3d bb 51 f1 3c
       -0.0012834701 -0.013220373 0.043712806 0.029457917
000370 25 ce 75 bc a2 72 e3 bc 40 15 46 bc a8 1b 08 bd
       -0.015002762 -0.027764622 -0.012090027 -0.0332295
000380 b5 45 1a bc b4 a9 5a bc d3 69 27 bd 7b 24 39 bd
       -0.0094160335 -0.013346124 -0.040872406 -0.045200806
000390 aa 75 fd 3c e4 19 9c bb 26 a3 f5 3c 68 99 b8 bc
       0.030939896 -0.0047638286 0.029985022 -0.022534087
0003a0 3c 37 4c bd c9 36 37 3d 83 48 25 3d af 36 85 bb
       -0.049857363 0.04472998 0.040352356 -0.0040653567
0003b0 7e de 83 bc f8 40 32 3d 62 06 10 bd 09 a5 bc 3c
       -0.016097303 0.04351899 -0.035162337 0.023027914
0003c0 c1 f9 1e bc 49 4f cd 3c 95 8d 18 3b c2 79 37 bd
       -0.009703101 0.02506222 0.002327775 -0.04479385
0003d0 09 db 4e 3d 11 55 aa 3b 78 03 04 3d bd 54 e5 bc
       0.050501857 0.005198129 0.03222987 -0.027994508
0003e0 cb cd 11 3d 52 a5 ec 3c 3a 0c 80 bc f7 34 0b 3d
       0.03559665 0.028887425 -0.01563083 0.033986058
0003f0 f2 4f eb 3c bd 4d 3f bd 60 7c ee 3a 75 b0 48 bd
       0.028724644 -0.046704996 0.0018195026 -0.048996408

cnn2.bias f4 [32]
000000 f7 25 8f bc 18 27 5d bd 4f 21 0f bd 8d bf 8e bb
       -0.017474158 -0.05399236 -0.034943875 -0.0043563307
000010 4d 96 7e bc f0 42 19 3d 03 cd 25 bd 38 52 e3 3c
       -0.015538764 0.037417352 -0.040478718 0.027749166
000020 d1 87 10 3d aa 45 0f bd 7b c8 d0 bd ef 78 29 bc
       0.035285775 -0.034978546 -0.101944886 -0.010343774
000030 34 c8 85 3c c7 55 26 3d 2d 79 b1 bc b6 27 c3 3c
       0.016330816 0.040609147 -0.021664226 0.023822647
000040 8b af aa 3c 0b bc 29 3d 5b 65 09 bd f4 3a 85 bc
       0.020835659 0.041439097 -0.033543926 -0.016263463
000050 88 85 2f bd 17 ee 1a bd f5 aa 54 3b e7 3a 47 bc
       -0.042851955 -0.037824716 0.003245053 -0.0121600395
000060 37 85 9f 3c 5c 59 41 3c c4 c3 54 bd 6c f8 46 3b
       0.019472701 0.01180109 -0.05194451 0.0030360473
000070 7f 35 82 3c 81 8f 0f bd 9a 5c 27 3c 89 f9 fb 3c
       0.01589465 -0.035048965 0.010214949 0.030758636

fc1.weight f4 [3, 1568]
000000 25 4a 70 3c 27 82 9b bc 9e 6d cb b8 ae 64 25 3c
       0.014666115 -0.01898296 -9.700212e-05 0.010094805
000010 00 37 d4 3c 5e 76 80 3c e0 c2 94 ba 91 e6 12 3c
       0.025905132 0.015681442 -0.0011349581 0.008966104
000020 c4 e1 f1 bc 9c 67 e2 bc 8d 37 41 bd f7 1e 3f bd
       -0.029526599 -0.027637295 -0.047172118 -0.04666039
000030 86 a0 0b bc 1e 2c 15 bd 67 96 06 bd 39 42 f5 bb
       -0.0085221585 -0.036419027 -0.03285828 -0.007484701
000040 c6 c7 c7 bc c4 55 c9 ba 08 05 00 3c 33 bc f3 bb
       -0.024387252 -0.0015360643 0.0078137 -0.0074382066
000050 17 02 6c bc 21 f6 09 bc 41 34 8c 3c 15 21 ce 3c
       -0.014404795 -0.008420498 0.01711476 0.02516226
000060 2e e1 f0 bb f1 0b 8f 3c ed 8b d4 3c 35 4d 23 3c
       -0.0073510623 0.017461749 0.025945628 0.009967138
000070 23 17 32 3b 94 c2 6b 3c 46 a2 e1 3c ac f8 78 bb
       0.0027174435 0.014389653 0.027543198 -0.0037990017
000080 a6 c7 19 3c e2 82 0a bd 97 e6 df bb b7 27 e4 ba
       0.009385979 -0.033816226 -0.0068329084 -0.0017406855
000090 89 24 bd bb 42 a7 8b bc e8 bb cd 3c bb 84 78 3a
       -0.0057721776 -0.017047528 0.025114015 0.00094802276
0000a0 04 3b b1 bc 9a dd cf 3b bb a2 9f bc 20 07 aa 3b
       -0.021634586 0.0063435556 -0.019486776 0.0051888376
0000b0 a0 45 b5 3c 12 bc b8 3c 00 a8 4b b9 43 cb 6b 3b
       0.022127926 0.022550616 -0.00019422174 0.0035979308
0000c0 bd 62 7b bb e2 be 42 3c 4f 78 7b bc f1 0b a1 bb
       -0.0038358413 0.01188633 -0.015348508 -0.0049147536
0000d0 1c 3f be bc 29 28 5d bb f0 46 4d bc 56 57 47 3c
       -0.023223452 -0.003374586 -0.01252912 0.012166819
0000e0 8f 42 81 3c 41 1e b6 bc 4e a5 42 3c 95 1a cf 3c
       0.015778808 -0.022231223 0.011880232 0.02528123
0000f0 66 09 75 3c ee 33 89 39 86 03 17 3c d8 4a 21 3b
       0.014955854 0.00026169367 0.009217149 0.002461126
000100 c4 a2 49 3c 12 98 ca bb e0 8c cf bc d2 42 8c 3b
       0.012306873 -0.006182679 -0.02533573 0.0042804265
000110 d0 4e bd 3b f2 44 ac bb 04 79 1c bc f1 65 f6 3b
       0.0057772174 -0.0052572424 -0.009550337 0.0075194766
000120 7c 3f ae bc 55 45 9f 3a bb bd e6 3b 0c a3 8c bc
       -0.021270506 0.00121514 0.0070416606 -0.01716759
000130 41 37 b1 bc ff d5 5a 3c 1a c2 41 3c 0e 75 96 3c
       -0.021632792 0.013356685 0.011826063 0.018366363
000140 32 61 26 3c e9 e3 1e 3c cd 97 16 3c 26 93 dd bb
       0.010155009 0.009697893 0.009191466 -0.006761926
000150 a6 08 42 3c 5a c6 34 3b de b9 61 bb bd eb 74 3c
       0.011842882 0.0027584047 -0.003444306 0.0149487825
000160 56 59 e7 bb e4 00 4a 3b 5c b9 c2 3c 8f 47 cd 3c
       -0.00706021 0.0030823285 0.023770027 0.025058536
000170 77 05 f6 3a 8f 7e 9f bc 13 d3 97 3c 48 86 a7 b9
       0.0018769939 -0.019469528 0.018533265 -0.0003195277
000180 14 b1 90 3b e2 46 77 3b e2 0c b1 bc de b5 c2 bc
       0.0044156406 0.0037731458 -0.021612588 -0.023768362
000190 1a 45 1e 3c 01 f0 9f bc cf a8 96 3c af c2 59 bc
       0.00966003 -0.019523622 0.018391041 -0.013291045
0001a0 dc f6 b2 3b e3 25 8e bc 0c e2 32 3c 7e cc d3 bc
       0.005461557 -0.01735205 0.010918152 -0.025854345
0001b0 b5 4a 64 3c 64 72 df bb f1 48 1c 3c 39 97 a9 bc
       0.013933827 -0.0068190563 0.009538875 -0.020701991
0001c0 82 12 07 3b 09 74 09 3d ec 7b 23 3d 98 e5 73 3b
       0.0020610397 0.033557925 0.039913103 0.0037215706
0001d0 13 8f 0a 3d aa 73 39 bc 4b 8c b3 bc b1 02 bd bc
       0.033827852 -0.01131908 -0.021917483 -0.023072572
0001e0 14 0f b5 3c 77 ba b2 3c af e5 14 3b f1 2f 1b 3d
       0.022101916 0.021817429 0.002271991 0.037887517
0001f0 94 60 31 3c 52 d9 25 3c 09 c9 c9 3c b5 51 2c bc
       0.010826249 0.010122614 0.024631994 -0.010517527
000200 5c 44 d2 3c 70 b3 e3 bb 3c 8b 81 bc 48 eb 9d 3c
       0.025667362 -0.006948881 -0.015813462 0.01927723
000210 86 d2 97 3c 6c e7 b8 3c 1d e6 52 3c b6 2f 01 bd
       0.018533003 0.022571288 0.012872246 -0.03153964
000220 0b 9e 5a bc 93 e1 bb bc f7 06 a0 3c 85 fe 84 bb
       -0.013343344 -0.02293471 0.019534571 -0.0040586614
000230 1b a9 77 3b ee 11 10 bc 1d 74 ab 3c 58 93 09 3c
       0.0037790004 -0.008793337 0.02092939 0.008396946
000240 3e b9 a7 b7 c8 8d 65 bc 45 3d 5c 3c f5 c3 b3 bb
       -1.9994211e-05 -0.014010854 0.013442342 -0.0054860064
000250 b2 a1 ab bb 5e 56 4f 3c 1a 73 8e 3c 01 f8 b4 3c
       -0.0052377814 0.012654869 0.01738887 0.022090914
000260 af ed 97 3c f0 5b ba 3c d6 65 1e 3c 69 f0 e4 bc
       0.018545954 0.022748917 0.009667834 -0.027946668
000270 4d d5 d7 bc 82 10 63 bd af 27 27 bb e0 9f 92 3b
       -0.026346827 -0.055435665 -0.002550583 0.004474625
000280 d5 75 07 bc 08 d4 94 3c c7 6c a5 bd 26 ab b1 bd
       -0.008267839 0.01816751 -0.08077388 -0.08675222
000290 9c ff c4 bd f6 0b e8 bd 7e fb 10 bd c1 5b d6 3c
       -0.09619066 -0.11330406 -0.03539609 0.026166799
0002a0 fc b4 96 3a 37 cd b1 bd bc 18 aa bd b5 26 db bd
       0.0011498029 -0.0868172 -0.08305499 -0.10700742
0002b0 75 25 cc bd 99 3a 80 bd be ab c6 3c 7b cb 4b 3b
       -0.09968082 -0.062611766 0.024251815 0.0031096626
0002c0 03 73 98 bc 6d 23 39 bd b1 da 93 bd 1b 21 82 bd
       -0.01860953 -0.0451998 -0.072194465 -0.063539706
0002d0 d1 92 f7 bc 7f ac 96 bc da 6d 8d 3c 63 34 e6 3c
       -0.030221375 -0.0183928 0.017264295 0.028101152
0002e0 82 59 87 bc db 22 69 ba 90 4b 10 3b d5 83 8a bc
       -0.016522173 -0.00088934385 0.0022017695 -0.016908566
0002f0 ad c1 dc bc 4f d6 db 3c eb 9b 40 3c 00 5d 9d 3b
       -0.02694782 0.026835589 0.011755924 0.004802346
000300 5f 96 0f bb 99 b4 c6 bc 69 6b 9c 3c 8a 37 aa bc
       -0.0021909697 -0.024256038 0.019094186 -0.020778436
000310 e3 7b 95 bc cc a4 24 3c ce 51 0f bc a6 8e bc 3c
       -0.01824755 0.010049056 -0.008747531 0.023017239
000320 e8 d6 46 3d c8 d8 a4 3c cb d3 01 ba ab e2 3d 3a
       0.048544794 0.0201229 -0.0004952519 0.0007243554
000330 f2 5d 07 bc 07 94 f0 3c 3c d2 31 3d 03 54 27 3d
       -0.008262144 0.02936746 0.043413386 0.040851604
000340 02 88 ed 3c f7 22 18 bc cf 93 80 bc 1a d0 11 bd
       0.028995518 -0.00928568 -0.01569548 -0.03559885
000350 31 3f cd 3c bd 5a 16 3d 29 ab 5a 3d 44 be 75 bb
       0.025054546 0.03670763 0.053385887 -0.003749744
000360 ab de 5e 3c ff 2a 94 3c 98 90 7f 3d 90 03 24 3d
       0.013602893 0.018086908 0.062393755 0.04004246
000370 37 70 80 3d 28 47 0c 3c 8f 0b d6 bd 98 77 05 be
       0.06271403 0.008561887 -0.104514234 -0.13033903
000380 be 15 d8 3c df ba 6b 3d bc d4 fa 3b f9 00 ea bc
       0.026377555 0.05755126 0.0076547544 -0.028564917
000390 9b fc 1b bd c8 22 31 bd 87 5b cd bc 1c d5 9d ba
       -0.0380827 -0.04324606 -0.025068058 -0.0012041661
0003a0 d8 07 9f bc 59 b9 42 bc 4a fa 76 bd a3 a1 30 bd
       -0.01941292 -0.011885011 -0.060297288 -0.0431229
0003b0 fe 4d d9 ba 42 60 22 3d 3f 1f a7 3b b3 b8 0c 3b
       -0.001657903 0.03964258 0.0051001604 0.0021472394
0003c0 fe 54 be 3c 54 89 6c 3c 68 84 d2 3c 13 07 63 3d
       0.023233887 0.014437038 0.025697902 0.05542667
0003d0 cd 3e 52 3c 5a a2 8d 39 5f 5b cc bb 77 9e 90 3b
       0.012832356 0.00027014577 -0.006236478 0.0044134217
0003e0 a2 14 93 3c bd d7 3c 3d 93 c4 3a 3d 06 e8 f3 3c
       0.017954174 0.04610418 0.045597624 0.029773723
0003f0 3e b5 c7 bc 30 e3 76 3c 73 1b 9e 3c 3d 6a 0a 3d
       -0.024378415 0.015068814 0.019300198 0.033792723

fc1.bias f4 [3]
000000 86 dd 44 3c 38 04 16 bd 43 a2 00 bc
       0.012015706 -0.036625117 -0.007851186
